Namespace(batch_size=10, dataset='gfp_amino_acid_', default=0, epochs=10, hidden_size=100, layers=1, learning_rate=0.005, model='rnn', name='rnn_test_sample_6', num_data=120)
RNN(
  (encoder): Embedding(21, 100)
  (rnn): LSTM(100, 100)
  (decoder): Linear(in_features=100, out_features=21, bias=True)
)
Namespace(batch_size=40, dataset='gfp_amino_acid_', default=0, epochs=10, hidden_size=200, layers=2, learning_rate=0.005, model='rnn', name='rnn_test_sample_4', num_data=120)
RNN(
  (encoder): Embedding(21, 200)
  (rnn): LSTM(200, 200, num_layers=2)
  (decoder): Linear(in_features=200, out_features=21, bias=True)
)
Namespace(batch_size=10, dataset='gfp_amino_acid_', default=0, epochs=10, hidden_size=100, layers=1, learning_rate=0.005, model='rnn', name='rnn_test_sample_6', num_data=120)
RNN(
  (encoder): Embedding(21, 100)
  (rnn): LSTM(100, 100)
  (decoder): Linear(in_features=100, out_features=21, bias=True)
)
Namespace(batch_size=40, dataset='gfp_amino_acid_', default=0, epochs=10, hidden_size=200, layers=2, learning_rate=0.005, model='rnn', name='rnn_test_sample_4', num_data=120)
RNN(
  (encoder): Embedding(21, 200)
  (rnn): LSTM(200, 200, num_layers=2)
  (decoder): Linear(in_features=200, out_features=21, bias=True)
)
Namespace(batch_size=10, dataset='gfp_amino_acid_', default=1, epochs=10, hidden_size=200, layers=2, learning_rate=0.005, model='rnn', name='rnn_test_sample_3', num_data=120)
RNN(
  (encoder): Embedding(21, 200)
  (rnn): LSTM(200, 200, num_layers=2)
  (decoder): Linear(in_features=200, out_features=21, bias=True)
)
Namespace(batch_size=10, dataset='gfp_amino_acid_', default=1, epochs=10, hidden_size=200, layers=2, learning_rate=0.005, model='rnn', name='rnn_test_sample_3', num_data=120)
RNN(
  (encoder): Embedding(21, 200)
  (rnn): LSTM(200, 200, num_layers=2)
  (decoder): Linear(in_features=200, out_features=21, bias=True)
)
Namespace(batch_size=10, dataset='gfp_amino_acid_', default=0, epochs=10, hidden_size=200, layers=2, learning_rate=0.005, model='rnn', name='rnn_test_sample_1', num_data=120)
RNN(
  (encoder): Embedding(21, 200)
  (rnn): LSTM(200, 200, num_layers=2)
  (decoder): Linear(in_features=200, out_features=21, bias=True)
)
Namespace(batch_size=10, dataset='gfp_amino_acid_', default=0, epochs=10, hidden_size=200, layers=2, learning_rate=0.005, model='rnn', name='rnn_test_sample_1', num_data=120)
RNN(
  (encoder): Embedding(21, 200)
  (rnn): LSTM(200, 200, num_layers=2)
  (decoder): Linear(in_features=200, out_features=21, bias=True)
)
Namespace(batch_size=10, dataset='gfp_amino_acid_', default=0, epochs=10, hidden_size=200, layers=8, learning_rate=0.005, model='rnn', name='rnn_test_sample_2', num_data=120)
RNN(
  (encoder): Embedding(21, 200)
  (rnn): LSTM(200, 200, num_layers=8)
  (decoder): Linear(in_features=200, out_features=21, bias=True)
)
Namespace(batch_size=10, dataset='gfp_amino_acid_', default=0, epochs=10, hidden_size=200, layers=8, learning_rate=0.005, model='rnn', name='rnn_test_sample_2', num_data=120)
RNN(
  (encoder): Embedding(21, 200)
  (rnn): LSTM(200, 200, num_layers=8)
  (decoder): Linear(in_features=200, out_features=21, bias=True)
)
Namespace(batch_size=10, dataset='gfp_amino_acid_', default=0, epochs=10, hidden_size=800, layers=2, learning_rate=0.005, model='rnn', name='rnn_test_sample_5', num_data=120)
RNN(
  (encoder): Embedding(21, 800)
  (rnn): LSTM(800, 800, num_layers=2)
  (decoder): Linear(in_features=800, out_features=21, bias=True)
)
Namespace(batch_size=10, dataset='gfp_amino_acid_', default=0, epochs=10, hidden_size=800, layers=2, learning_rate=0.005, model='rnn', name='rnn_test_sample_5', num_data=120)
RNN(
  (encoder): Embedding(21, 800)
  (rnn): LSTM(800, 800, num_layers=2)
  (decoder): Linear(in_features=800, out_features=21, bias=True)
)
