…
BCE Loss:  tensor(5708.7529) KLD Loss: tensor(114.8349)
BCE Loss:  tensor(5559.2446) KLD Loss: tensor(113.1250)
BCE Loss:  tensor(5524.4473) KLD Loss: tensor(119.5684)
BCE Loss:  tensor(5976.9419) KLD Loss: tensor(107.8320)
BCE Loss:  tensor(5494.9146) KLD Loss: tensor(116.7882)
BCE Loss:  tensor(5705.7900) KLD Loss: tensor(114.8433)
BCE Loss:  tensor(5832.8496) KLD Loss: tensor(116.4559)
BCE Loss:  tensor(5984.1978) KLD Loss: tensor(113.3831)
BCE Loss:  tensor(5704.9507) KLD Loss: tensor(111.7530)
Test set loss: 58.6150 Average Mismatches: 5.2000 Wild Type Mismatches 0.0000 <====> 

finished saving model
VAE(
  (fc1): Linear(in_features=4998, out_features=400, bias=True)
  (fc21): Linear(in_features=400, out_features=20, bias=True)
  (fc22): Linear(in_features=400, out_features=20, bias=True)
  (fc3): Linear(in_features=20, out_features=400, bias=True)
  (fc4): Linear(in_features=400, out_features=4998, bias=True)
)
VAE(
  (fc1): Linear(in_features=4998, out_features=400, bias=True)
  (fc21): Linear(in_features=400, out_features=20, bias=True)
  (fc22): Linear(in_features=400, out_features=20, bias=True)
  (fc3): Linear(in_features=20, out_features=400, bias=True)
  (fc4): Linear(in_features=400, out_features=4998, bias=True)
)
BCE Loss:  tensor(5813.0317, grad_fn=<BinaryCrossEntropyBackward>) KLD Loss: tensor(105.0938, grad_fn=<MulBackward0>)
BCE Loss:  tensor(5813.0317, grad_fn=<BinaryCrossEntropyBackward>) KLD Loss: tensor(105.0938, grad_fn=<MulBackward0>)
BCE Loss:  tensor(5837.2607, grad_fn=<BinaryCrossEntropyBackward>) KLD Loss: tensor(118.7725, grad_fn=<MulBackward0>)
…
